models/neural_ode_best_model.pth (torch, 122311 bytes, 36 tensors)

ode_func.net.0.weight f4 [64, 12]
000000 a8 c5 93 3e ee dd 70 3e 2a 58 ba bc 05 f1 80 3e
       0.28861737 0.2352216 -0.022747118 0.25183883
000010 32 e0 20 bd 35 cb 24 3d 3d 43 0f be fd fa 27 3e
       -0.03927631 0.040232856 -0.13990493 0.16404338
000020 e0 d1 7e 3e eb 29 59 be 94 00 3a 3e 6b bc 55 3d
       0.24884748 -0.21207397 0.18164283 0.052181643
000030 2e bd 81 3e 72 64 60 3d db a0 2b 3e a4 14 5b bd
       0.25339645 0.054783292 0.1676058 -0.05348648
000040 cc 17 54 3e 82 15 09 3d 52 70 0e be 20 06 9f 3d
       0.20712203 0.033467777 -0.13910034 0.0776484
000050 22 87 f1 bd e8 30 d5 bc e3 5d 28 be e6 63 30 3e
       -0.11793353 -0.026024297 -0.16442065 0.17225608
000060 e9 d8 9d be 8a bc f9 bd a7 02 f3 bd 32 15 21 be
       -0.30829552 -0.12194164 -0.1186574 -0.15730742
000070 2f f4 3f 3c 0b ba 84 be 15 84 84 3e 5b 85 79 be
       0.011715933 -0.2592319 0.2588202 -0.24367277
000080 e3 2f 5e 3e 57 71 8a 3d 66 88 36 bc 96 de 29 3e
       0.21697955 0.06759899 -0.011140918 0.16588816
000090 79 3d af 39 44 f0 52 3e ed d1 58 3c 6d 14 85 bd
       0.00033424402 0.20599467 0.013233644 -0.064980365
0000a0 53 da a9 3d 0a 27 99 bd ce 15 e3 3d d6 71 70 3e
       0.08293595 -0.07478149 0.11088143 0.23480925
0000b0 88 c0 22 3e 52 91 15 be 28 5b 5b 3e 35 5d a0 3d
       0.15893757 -0.14606217 0.21421492 0.07830278
0000c0 03 a2 4b 3e de 82 45 be 83 aa 81 be ef d3 0f be
       0.19886021 -0.19288203 -0.25325403 -0.1404569
0000d0 76 5a 5d be df aa 5a 3e b4 8b 85 3d de c5 e6 3d
       -0.2161654 0.21354245 0.06520787 0.11268209
0000e0 cb f2 e8 3d ab 69 fb bc 75 d6 33 3e 63 07 60 be
       0.11374434 -0.030690035 0.17562278 -0.21877818
0000f0 8b 86 a8 3d 4f 51 3e be ed 66 0f 3e 5d ee d4 bd
       0.08228787 -0.18585704 0.14004107 -0.10397027
000100 8d 1f f8 3d a0 80 9b bd 13 77 7d 3e d2 af 37 be
       0.12115393 -0.07592893 0.24752454 -0.17938164
000110 93 42 1a be df 10 33 be 73 1d 3e 3e b6 d3 9f 3d
       -0.15064459 -0.17486905 0.18565921 0.078040525
000120 7b 90 a1 3e 72 80 66 be ff 11 88 be 7e 59 82 be
       0.31555542 -0.22509935 -0.2657623 -0.25458902
000130 d3 7c 51 be 25 0c a5 3d 3c 89 98 3d f7 b2 83 3e
       -0.20457773 0.08058957 0.074480504 0.25722477
000140 fa 92 00 be 72 18 4b be 7b d9 de 3d f8 2c 07 be
       -0.12556067 -0.19833544 0.10881325 -0.13200748
000150 0a db 3d 3e ed 8f 03 bd 7f 3f 15 3e b2 d7 6f be
       0.18540588 -0.03211968 0.14575003 -0.23422125
000160 db 37 42 be f9 a4 86 3d 2a 22 73 3d f3 73 10 bd
       -0.1896662 0.06574435 0.059358753 -0.035266828
000170 2b 92 2a 3e 7b fc 6d 3e c2 2f 64 be ff de 27 be
       0.16657321 0.23240845 -0.22283843 -0.1639366
000180 5e 32 a1 3e d9 94 b3 bd fb 4a 05 bd 55 98 95 be
       0.3148374 -0.08768625 -0.03254221 -0.29217783
000190 2b c0 0a be 57 9f 5e 3d 12 b0 ff bc fa 5b 53 be
       -0.13549869 0.054351177 -0.031211887 -0.20640555
0001a0 b6 88 b1 3c fc 95 3e be 18 e6 9c be f7 1a 31 be
       0.021671634 -0.18611902 -0.30644298 -0.17295443
0001b0 15 fc 88 be 27 3b 18 be 1b cd a3 3e 04 32 8b 3d
       -0.26754823 -0.14866315 0.3199242 0.06796649
0001c0 bc b6 01 3e bf 96 89 be b6 f4 18 be 8a 12 b2 bd
       0.12667364 -0.26872823 -0.149371 -0.08694942
0001d0 ea 3c 09 3c d3 2e 4e be d2 60 e3 bd 6c a5 33 be
       0.008376339 -0.2013505 -0.111024514 -0.17543572
0001e0 e6 86 a1 bd 7e 64 bf bd 9d e5 6c bd d9 8a 35 be
       -0.07887058 -0.09345339 -0.057836164 -0.17728747
0001f0 49 1f 5a be 4f 56 15 be 6a 9b c7 bd 87 30 64 be
       -0.21300997 -0.14583705 -0.0974644 -0.22284137
000200 62 3b 65 3e 97 56 f5 bc 75 88 a9 3e 1c 6c ca 3d
       0.22385934 -0.029948516 0.3311192 0.098839015
000210 c4 47 a1 be 16 d3 47 3e d9 1c eb bd 49 aa ba bd
       -0.31500065 0.19514117 -0.11480112 -0.091145106
000220 e8 d8 83 be c7 b2 89 be 4e 22 b2 3d b7 a7 72 bd
       -0.25751424 -0.2689421 0.08697949 -0.059241977
000230 c1 e0 b0 3d 57 0c 65 be 10 1c 95 3e 02 59 40 be
       0.086366184 -0.22367989 0.29122972 -0.18783954
000240 ae 79 a7 bd f5 cd 8c 3d 8c 48 2e 3e 77 48 76 3e
       -0.081775054 0.06875221 0.17019862 0.2405108
000250 47 6d 8b 3e 47 19 62 be b9 75 d0 3d 7c b8 d8 bd
       0.2723181 -0.22079955 0.10178704 -0.105820626
000260 e5 2b 81 bd 6c 06 27 be b2 d0 90 3e 32 98 3b be
       -0.063072 -0.16311044 0.28284222 -0.18319777
000270 38 22 32 3e 00 46 0c 3e c1 5d d6 3d 61 ef 20 be
       0.17395866 0.13698578 0.10467101 -0.15716316
000280 14 f3 80 3e 6e bf 46 3d 74 39 58 3d 04 c7 6b be
       0.25185454 0.048522405 0.052789167 -0.23025137
000290 4f 18 da 3d 20 b6 58 bc 80 06 1e be eb 6f 70 3e
       0.10649168 -0.013227016 -0.15432167 0.23480193
0002a0 70 88 9e 3c ad fd 35 be 8d 23 31 be bb c5 2c b8
       0.019352168 -0.17772551 -0.17298718 -4.1192146e-05
0002b0 af 8d 1b 3e 56 ec 18 bd 4a 87 17 be 33 db b0 bd
       0.15190767 -0.037334763 -0.14797702 -0.08635559
0002c0 ac e3 54 be 25 10 b3 3d 73 a0 8a 3e a6 c6 81 be
       -0.20789975 0.08743314 0.27075538 -0.2534687
0002d0 31 d9 06 3e 24 7b 1a 3e cd 32 c3 3d 96 27 e4 bd
       0.1316879 0.15086037 0.09531174 -0.11140363
0002e0 82 7c 30 3e 11 fd 07 3e fb 17 ea 3d 4b 75 46 bd
       0.17234996 0.13280131 0.11430355 -0.048451703
0002f0 18 aa 67 bd c6 a9 de 3c 18 e6 ff bd e2 7a d1 bd
       -0.0565587 0.027180564 -0.12495059 -0.10228516
000300 c6 dc 02 3e 76 1d 79 3e 18 5b 88 bd 7b e8 5e bd
       0.12779531 0.24327645 -0.06658 -0.05442093
000310 65 b4 17 bd 3b 92 19 bc 03 aa 63 3d 49 6c bb 3d
       -0.037037272 -0.009373243 0.055582058 0.09151513
000320 8f 60 80 be 94 8d d2 bd 40 67 9f 3e 2b 53 08 3e
       -0.25073668 -0.1028091 0.3113346 0.13312976
000330 f0 c6 5d 3d 44 a8 31 be c7 47 05 be e4 d6 89 be
       0.0541448 -0.17349344 -0.13015662 -0.2692176
000340 da e8 92 bd 13 eb ac 3d e2 68 39 3e b1 c9 ff 3d
       -0.07173319 0.08443274 0.18106416 0.124896415
000350 82 83 7f be 5e d3 3f be 11 68 f9 bd a2 71 87 3e
       -0.2495251 -0.18732974 -0.12178052 0.26453882
000360 03 bf 78 bc 28 59 64 bd 4d 53 a0 3d ec 11 a7 bd
       -0.0151822595 -0.05574909 0.07828388 -0.08157715
000370 5d a9 33 be d8 12 66 3e e0 b3 ff bd 6d d4 8d bd
       -0.17545076 0.22468126 -0.1248548 -0.069252826
000380 40 9f 90 be 7b 90 52 3e d3 f5 90 3e 98 56 de 3d
       -0.28246498 0.20562927 0.2831255 0.1085636
000390 a5 62 0e be 54 5a 97 be e5 63 67 be 64 1d 37 3e
       -0.13904817 -0.29561102 -0.225967 0.17882305
0003a0 49 bd 0c 3e a6 84 5a 3e f7 55 ef 3d de 34 96 3d
       0.13744082 0.21339664 0.11686318 0.07334302
0003b0 0a 99 a6 3c 5c f4 8f be 12 ed a0 be 94 c9 88 be
       0.020336647 -0.2811612 -0.3143087 -0.26716292
0003c0 30 45 f8 3d b6 e2 1d be e2 e6 60 bd c9 62 26 be
       0.121225715 -0.15418515 -0.054907687 -0.16248621
0003d0 18 c4 b0 bd b4 1e 60 be 63 84 3d be ea 21 cb 3d
       -0.08631152 -0.21886712 -0.18507533 0.09918578
0003e0 f4 d4 a9 bd c4 c4 39 3e 22 e3 d8 bd b4 14 4c be
       -0.08292571 0.18141466 -0.10590197 -0.19929773
0003f0 e3 1c d8 bd 88 06 18 be 6d fa d8 bd 01 1a 8a be
       -0.10552385 -0.14846241 -0.1059464 -0.26972964

ode_func.net.0.bias f4 [64]
000000 fa cd 4a be 5f 77 77 3e f4 ec 0c 3e 0f e8 1d 3e
       -0.19805136 0.2416663 0.13762265 0.15420555
000010 b5 15 3f be 9e b9 23 be 41 f2 b2 bd d7 5c c0 bd
       -0.18660624 -0.15988776 -0.087376125 -0.09392708
000020 93 00 6f be aa f5 be 3c e2 17 20 3d e7 89 f2 39
       -0.23340063 0.023310501 0.039085276 0.00046260582
000030 17 8e 30 bb 7c 6d 13 be d0 22 bd 3d c5 08 bb 3d
       -0.002694016 -0.14397234 0.092351556 0.09132532
000040 13 c9 0b be d2 bd a0 be 3d c6 2e 3e 0f 0a 1d 3d
       -0.13650922 -0.3139482 0.1706781 0.03833967
000050 c5 da 1c be c6 07 9b 3e 47 98 c9 bd d1 d2 69 3e
       -0.15317829 0.30279368 -0.09843498 0.22834326
000060 48 f2 de 3d 49 86 47 be 97 5f 4f 3e 1f 60 6d be
       0.10886055 -0.1948482 0.20251308 -0.23181199
000070 b4 8d 09 be 42 72 41 bd d7 6e 15 be 49 74 90 3e
       -0.13432962 -0.047228105 -0.14593063 0.2821372
000080 a4 87 c8 bd a0 7b f6 3d b4 14 8e be d8 1e 14 3e
       -0.097914964 0.12035298 -0.2775017 0.14464891
000090 36 bd 7d bd 7b da 82 be 92 7a d3 3c c2 b4 e0 3d
       -0.061948024 -0.25557312 0.025815282 0.10971977
0000a0 38 f2 8b 3e eb 9c 4e be 43 5f 34 be ed d5 9b 3c
       0.27333236 -0.20177047 -0.17614464 0.019022906
0000b0 07 22 8a 3d 6b fb a8 3d ba b3 49 3e 5b 46 47 bd
       0.067447715 0.08251079 0.19697466 -0.04865108
0000c0 d3 64 30 3e 96 3b 78 3e 73 86 09 bd 48 7b 43 3e
       0.17225961 0.2424148 -0.033575486 0.19089997
0000d0 ac aa 07 3e 82 a5 96 3e 2e c1 3c be 35 02 09 be
       0.132487 0.29423147 -0.18433067 -0.13379748
0000e0 f9 46 ac bd d6 c3 62 3d 6a a6 0a 3e 20 2f 45 be
       -0.084119745 0.055362545 0.13540044 -0.19256258
0000f0 70 31 3b 3e 9a da 47 bd e5 82 42 3e a9 b0 d6 3c
       0.18280578 -0.04879246 0.18995245 0.026207285

ode_func.net.2.weight f4 [64, 64]
000000 79 a2 8a bd d7 c5 13 bd cd 02 01 be 23 c2 75 3d
       -0.067692704 -0.036077347 -0.12598725 0.059999596
000010 da 05 9b bd e5 8c 25 bc 33 46 49 3d 7f c1 35 bd
       -0.075694755 -0.010104393 0.049139213 -0.044373985
000020 2f 83 a2 3d 76 45 f2 bd 28 b2 cf bd 13 8f 23 be
       0.079351775 -0.11829655 -0.101414025 -0.15972547
000030 f5 e9 6b bd 10 10 19 bc e3 99 02 3b 15 46 c0 bc
       -0.057596166 -0.0093422085 0.001992815 -0.023470918
000040 f2 29 79 3d c3 66 14 3e 7a 16 c6 3a 91 f0 ce bc
       0.060831018 0.14492325 0.00151129 -0.025261195
000050 aa f2 ce bd fa ee 24 3d 1a ba c9 bd b2 c2 30 3d
       -0.10104878 0.04026697 -0.09849949 0.043154426
000060 90 83 bb 3d 94 d5 0b 3d 39 e6 c4 3d cd 6d c8 3d
       0.09155953 0.03413923 0.09614224 0.09786568
000070 9b 1e 68 3c 9c 30 86 bd d3 c7 b8 3d 8e 7b 89 bd
       0.014167453 -0.0655224 0.090224884 -0.06713019
000080 41 be 96 bd c1 c9 da 3d 14 64 b8 3d 22 93 c0 3c
       -0.07360507 0.10683013 0.090034634 0.023507658
000090 27 50 d0 bc f7 4e a0 bd 1e 39 5f ba 2f e1 29 3e
       -0.025428845 -0.07827561 -0.0008515286 0.16589807
0000a0 fd 4b 25 3c 21 d6 80 3d 56 b9 00 3c b9 42 04 bc
       0.010088918 0.06290842 0.0078566875 -0.008072549
0000b0 f1 65 b7 3d 66 e0 b8 3c ce 23 27 3d c8 1c 69 bd
       0.08954991 0.022567939 0.04080563 -0.056912214
0000c0 05 96 44 3d 2e be f2 3c 1e b1 87 bc 25 04 75 3d
       0.047994632 0.0296317 -0.016563948 0.059818406
0000d0 4e cd 8d 3d cd ef 93 3d cb 30 09 3e c1 2f 5d bc
       0.069239244 0.07223473 0.1339752 -0.013500155
0000e0 e5 d1 81 bd f8 57 72 bc 85 e5 c6 3c a7 35 c5 bc
       -0.06338862 -0.014791481 0.024279365 -0.024073435
0000f0 20 63 81 bd 65 0e eb bc b6 2e 3b 3d 5d 1e ce 3b
       -0.06317735 -0.028693387 0.045698844 0.0062902407
000100 c1 4b c1 bc 05 e5 84 bc 59 47 8e bd 90 a9 8b bd
       -0.023595693 -0.016222486 -0.06947202 -0.06819451
000110 fc c1 c1 3d 5c 88 af 3d cd 54 f3 3d 37 e7 73 3d
       0.09460828 0.0857093 0.11881409 0.059546676
000120 e6 20 ab 3d 74 ab 87 3d 5a ba 0f be e3 fc 19 bd
       0.08355884 0.06624499 -0.14035931 -0.037594687
000130 92 65 36 bc a7 8b aa bc 66 53 f3 bd 10 8b 09 3e
       -0.011132615 -0.020818545 -0.11881141 0.13431954
000140 e7 d4 ce 3d d5 1c a2 3d 5c 45 9c 3d b1 68 5e bd
       0.10099202 0.079156555 0.07630417 -0.05429906
000150 d8 bc 48 3c 46 ec ae 3c 52 f2 08 bd 10 ac 12 bd
       0.012252055 0.021352898 -0.03343422 -0.035808623
000160 16 f4 80 bd 06 59 b3 3a 64 98 e6 bd 2e 68 de bc
       -0.06296556 0.0013683147 -0.11259535 -0.027149286
000170 70 f3 d7 3d fa 9c fe bc f5 52 a2 bd 1c 09 e1 3c
       0.10544479 -0.031080712 -0.07925979 0.027470164
000180 6a e2 4a bd b9 2a e7 bc 77 88 02 3e 71 27 ab bd
       -0.04953233 -0.028218614 0.1274737 -0.08357132
000190 ba 32 01 be 03 44 d8 bc 88 ff b8 bb 30 cb 87 bb
       -0.12617007 -0.026399618 -0.005645696 -0.004144095
0001a0 55 f1 d1 bd 37 8a 8f 3d d1 86 90 3d 9b 24 1b bc
       -0.102511086 0.07008784 0.07056964 -0.009469177
0001b0 4c ab 9c bd 19 78 41 bd 00 fc a3 bd fe ee a2 bd
       -0.0764986 -0.047233675 -0.080070496 -0.079557404
0001c0 07 c3 ed bd 68 b8 89 bc 14 ca 04 be bc 0e c1 bd
       -0.11609464 -0.016811565 -0.12967712 -0.094266385
0001d0 72 c0 f0 bd b0 d7 00 bc 4a f9 f9 bc 3d 39 9c bd
       -0.11755456 -0.007863924 -0.030514378 -0.07628105
0001e0 c5 ba 18 3e 0c 42 ef 3c d9 9e b8 3d 73 94 e0 bd
       0.14914997 0.029206298 0.09014673 -0.109658144
0001f0 cc 5a 0e be c7 eb 9f bd b3 db 47 3d bd 4b a4 bc
       -0.13901824 -0.07808643 0.048793506 -0.020055646
000200 c0 fc ac bd fc f7 2b bc 06 d5 ef bd 69 a4 44 bd
       -0.08446646 -0.010496136 -0.11710553 -0.048008356
000210 14 37 19 bd d2 5f ec 3d 30 c0 c3 3c 5f 1c 9b 3c
       -0.037406042 0.11541714 0.023895353 0.018934427
000220 8a f7 33 3d 63 ae ff bc 7e cf 04 3d e3 fc 10 3d
       0.043937244 -0.031211084 0.032424442 0.03539742
000230 67 3c 2c 3d 8b 65 cf bc 59 6a bb 3d 95 70 c8 ba
       0.04204979 -0.025316974 0.091511436 -0.0015292341
000240 3d 57 1e bd 95 b3 b9 3d e4 cb a1 3d c1 2a f1 3d
       -0.038657416 0.09067456 0.07900217 0.11775733
000250 a4 e9 88 3d af b4 9a bd 26 ab ae 3d 11 5d b0 3d
       0.066851884 -0.07553994 0.08528738 0.08611501
000260 aa f2 e6 bd 99 f4 9f bc 88 b3 d7 bd 23 cf f3 3c
       -0.11276753 -0.019525813 -0.1053229 0.029761856
000270 a0 27 63 3d d1 be 0d bd 32 f6 b4 bc 5a 78 19 3c
       0.05545771 -0.034605805 -0.022090051 0.009367073
000280 8a 24 6f bb 44 76 fc bd e6 7f 00 3e 27 f1 ba bd
       -0.0036490285 -0.12327245 0.1254879 -0.091280274
000290 10 5e c2 bc 59 5d 0d 3d 5e f0 50 3c bd 2d e1 bd
       -0.023726493 0.03451285 0.0127526205 -0.10995052
0002a0 ce b7 24 3d 5d 02 78 bd f7 d4 22 bd 1f 71 aa 3c
       0.040214352 -0.06054913 -0.03975388 0.020805893
0002b0 b2 3b 71 bd 32 98 98 bd 07 9a 08 bd 23 b1 91 bd
       -0.05889482 -0.07450904 -0.033350017 -0.07113864
0002c0 66 b3 7b bd 3a 95 90 bd a1 0d dc 3c 22 c9 d0 bd
       -0.061450385 -0.07059713 0.026861968 -0.10194613
0002d0 f1 ac ad bd f0 de 24 bd e5 bd 06 3d 17 5a 73 3d
       -0.084802516 -0.040251672 0.03289594 0.05941209
0002e0 ed 90 96 bd 9d 13 08 3d ab 5c 63 3d a9 eb af 3d
       -0.07351861 0.03322183 0.055508297 0.085898705
0002f0 d0 94 0b be 51 b6 42 bd 6f 1a 05 be ec a2 a6 bd
       -0.13630986 -0.04753715 -0.12998365 -0.08136544
000300 58 cf 81 3d 71 0b 3d bc 08 d5 84 3d 95 2a 62 bd
       0.06338376 -0.011538372 0.06485945 -0.05521639
000310 53 45 45 3c 7a ee a6 bd 47 72 5a 3d 6b 06 b9 bd
       0.012040454 -0.081509545 0.05333164 -0.09034427
000320 7f a6 88 bd 6b ba e0 bd 63 c5 ce 3a cf 2f ea 3d
       -0.066723816 -0.109730564 0.0015775379 0.114349
000330 04 52 90 3d c1 67 92 bd 3d 0a 68 3c c2 de 09 bc
       0.07046893 -0.07148696 0.014162597 -0.008414926
000340 9f ea f0 bd f8 b8 af 3d aa 5e 89 3c 57 fa 46 3d
       -0.117635004 0.08580202 0.016768772 0.048578586
000350 f4 61 b8 bd fb ce 04 bd 8d ab 30 3b b1 1b 32 3d
       -0.09003058 -0.032423954 0.002695772 0.04348344
000360 dd 85 3e bc eb cd 91 bd 43 1a 1d 3e fe f5 15 bd
       -0.011628595 -0.07119354 0.1534205 -0.03661155
000370 92 49 a9 bd 93 7f cc bc 8c 66 0e 3e 41 31 2c 3d
       -0.082659855 -0.024963176 0.13906306 0.04203916
000380 e2 8f a7 bc cc b9 00 bd a3 bb 0c bd db ee 8b bd
       -0.02045435 -0.03142719 -0.03435863 -0.068326674
000390 74 a6 ce bd 81 41 68 3d f4 68 d2 3d c6 d3 f2 3d
       -0.10090342 0.056703094 0.102739245 0.11856799
0003a0 37 26 b7 bd 31 89 ae 3d 56 94 d7 bd 55 03 9f 3d
       -0.08942836 0.08522261 -0.1052634 0.077643074
0003b0 e5 8c b8 3d 5d 27 fd 3d 34 a6 ca 3d 39 46 99 3d
       0.090112485 0.123610236 0.09894982 0.07484097
0003c0 6d f8 c1 3b 3e 5c 9e 3d 98 8b 36 bd 76 4c 3d 3d
       0.0059195072 0.077324376 -0.04456672 0.046215497
0003d0 30 7e 31 bd 7a 6b 9e 3c c8 2f e7 bd a4 81 7d bc
       -0.043333232 0.019338358 -0.112884104 -0.015472803
0003e0 b8 5e b8 bd 50 58 5b bd 15 80 90 bd 97 05 ef bd
       -0.09002441 -0.05355102 -0.0705568 -0.11670988
0003f0 30 26 0d 3d 73 ae 9e 3d 78 d8 0d 3e b2 f8 90 3d
       0.034460247 0.07748117 0.13852108 0.07078685

ode_func.net.2.bias f4 [64]
000000 56 a1 a3 3d 45 c3 06 be 9b 40 04 bd 26 27 96 bd
       0.07989757 -0.13160427 -0.032288175 -0.07331686
000010 0c 3f 1a bd 89 b7 0d 3e 81 2f c1 bd 1e c5 9f bd
       -0.037657782 0.13839544 -0.09432889 -0.07801269
000020 4b 93 44 3c f1 5b 1c 3e 07 d5 f0 bd 38 8b 01 be
       0.011998008 0.15269448 -0.11759382 -0.12650764
000030 6b 47 93 bd 23 e6 fc 3d 8f f1 68 3d 6d cc e7 3d
       -0.07191356 0.123485826 0.056870993 0.11318288
000040 66 7e 9f 3d ac ae 18 bb 05 36 82 3d dd 7c 00 3d
       0.077877805 -0.0023297472 0.0635796 0.03136908
000050 9d 9f 89 3b 13 ce 7d bd 79 83 49 3d 0b cb 56 3d
       0.0041999356 -0.061964106 0.049197648 0.05243973
000060 91 18 d1 bc b3 a8 02 3e 9a 66 72 bd e2 26 4f bc
       -0.02552441 0.12759666 -0.05917988 -0.012643548
000070 91 9a 8d 3d bb 80 f9 3c 59 e8 89 bc c0 76 e2 bc
       0.06914247 0.030456891 -0.016834425 -0.027644515
000080 79 15 d1 3c b2 8f 79 bc 2a 26 73 bc 9b e1 51 3d
       0.025522934 -0.015232014 -0.014840642 0.051240545
000090 3d 1f 97 3d 6e d2 3f bd e1 7b 8a bd b4 df d0 3d
       0.07379005 -0.04683154 -0.06761909 0.10198918
0000a0 b7 03 21 bd 36 e0 e7 bc 02 07 a8 bd 92 1d c2 3d
       -0.039310183 -0.028305154 -0.08204462 0.09478296
0000b0 14 e5 d8 3d 51 37 d7 bd 1b b6 ae bd a4 64 05 3e
       0.10590568 -0.10508598 -0.085308276 0.13026673
0000c0 ff 2d d9 3c d8 8c 37 bd f3 76 17 be 5d 8b 1d 3d
       0.02651119 -0.044812053 -0.1479147 0.038462985
0000d0 f1 a0 09 be f7 3c ef 3c 5c c1 f0 bd ed 33 f9 bd
       -0.134403 0.029203875 -0.117556304 -0.12168107
0000e0 36 1e 05 be 36 32 11 3e e3 65 14 3e 15 a8 1b be
       -0.12999806 0.1417931 0.14491992 -0.15200837
0000f0 d4 51 8d 3d 2c 82 b4 bd 39 c9 cf bd 51 3e b8 3d
       0.06900373 -0.08813891 -0.10145802 0.08996261

ode_func.net.4.weight f4 [12, 64]
000000 0f aa 5e 3d 4c 75 d1 3d a4 42 d5 3c 37 7f aa 3d
       0.0543614 0.10227451 0.026032753 0.083250456
000010 b1 06 25 be 01 a5 e9 3c c8 7c 51 bd 45 89 0c bd
       -0.16115834 0.028521063 -0.05114439 -0.034310598
000020 1b e5 b3 3d 65 a5 1b be 8f 23 e1 3d d3 08 81 3c
       0.08783933 -0.15199812 0.109931104 0.015751278
000030 51 de 1a 3e 8c 73 92 bd f6 25 c2 3d b6 1c 6a 3d
       0.1512387 -0.07150945 0.09479897 0.057156287
000040 40 33 de bc 24 d1 2c be 50 c6 34 3e 5c 8e fd bd
       -0.027124047 -0.16876656 0.17653775 -0.123806685
000050 c8 c7 06 bc 6e cf 0e 3e 74 53 62 bb 35 e3 8a 3d
       -0.0082263425 0.13946316 -0.0034534605 0.067816176
000060 e2 3b 06 3e 92 90 20 bd 96 d6 bd 3d 8f 03 63 3d
       0.13108781 -0.039200373 0.09269445 0.055423316
000070 b8 75 46 3e 2e 8c 8b 3d 16 80 ef bd 7e 65 43 bd
       0.19380844 0.068138465 -0.11694352 -0.047704212
000080 e1 d4 ff 3c 74 ce 03 3e 50 44 83 3d b6 cd 92 3d
       0.031229438 0.12871724 0.06409514 0.071681425
000090 ef 74 c5 bd 07 34 92 bc 75 ad 9c bd 43 d0 c4 3d
       -0.09641444 -0.017847074 -0.07650272 0.09610035
0000a0 69 c5 1c 3e 17 1f 08 be 57 29 f1 bd dd 83 ba 3d
       0.15309681 -0.1329311 -0.11775463 0.09107182
0000b0 4b 62 07 be ca 3c 0a 3e 20 c7 fc bd 80 6b d7 bd
       -0.1322109 0.13499752 -0.123426676 -0.10518551
0000c0 bc d4 83 bc c9 bf cc 3d d8 12 1c 3d a1 b5 2e 3e
       -0.01609265 0.099975176 0.03810391 0.17061473
0000d0 6f ca 88 3d 9b 5c d3 3d e1 6e 0c 3e 26 8d 00 3e
       0.06679236 0.103203975 0.13714172 0.12553844
0000e0 c3 2b 21 3e 60 02 ae bd aa db b7 bd e5 5b ab 3d
       0.1573935 -0.08496547 -0.089774445 0.08367137
0000f0 eb 12 19 3e d4 3d 22 3c 57 81 13 be 7f 28 cb bd
       0.14948623 0.009902436 -0.14404808 -0.099198334
000100 62 e3 93 bc a1 bd 78 3b 5b 8b 81 bc 02 d4 45 3c
       -0.01805276 0.0037954825 -0.01581352 0.012074472
000110 89 35 14 bc d8 19 01 3d 2f 6e e1 bd f4 17 16 3e
       -0.009045967 0.031518787 -0.11007344 0.14657575
000120 e2 a2 30 bd ba 7f 87 3d e5 a0 ba 3c a9 34 b4 bd
       -0.043124087 0.06616159 0.022781799 -0.08799107
000130 a0 30 96 3d 7c 3a e5 3c 57 be a4 bc 4a 23 87 bd
       0.07333493 0.02798199 -0.020110292 -0.06598528
000140 6e e7 1d 3d 68 6a 49 3d 05 fc b6 bb b4 15 e0 3c
       0.038550787 0.049173743 -0.0055842423 0.027354099
000150 bd 72 c5 3d 1b 29 41 3d 99 48 86 3d 55 d1 03 3a
       0.09641025 0.04715834 0.06556816 0.00050284463
000160 77 48 13 bc 93 bf 63 bd fc fb 00 be 21 a6 88 bd
       -0.008989445 -0.05560262 -0.12596124 -0.066723116
000170 de fd 0c bd 9d 83 80 bd 8d b4 f4 bd 31 bc a6 3d
       -0.034421794 -0.06275103 -0.119485 0.081413634
000180 c3 07 6a 3d 95 9a d4 bd 82 23 9c 3d ed 04 db bd
       0.05713631 -0.10381047 0.0762396 -0.10694299
000190 de 19 05 3e 88 a7 ee 3d 9c 23 af bc 01 fd d4 3d
       0.12998149 0.11653048 -0.021379285 0.10399819
0001a0 ac 57 c5 bd 79 1b f9 bc da 7c c8 3d f4 7c 29 bd
       -0.09635863 -0.030408608 0.097894385 -0.04137893
0001b0 a9 37 10 bd 81 59 e9 bc 1d b6 41 bd 7e 61 ed 3d
       -0.03520933 -0.028485062 -0.047292817 0.11590861
0001c0 fe 30 98 3d cd a3 67 3d af c3 92 bc b6 0f 0a 3d
       0.074312195 0.056552697 -0.017915575 0.03370639
0001d0 96 02 8a bc 73 e6 45 3c ea 8b a7 bc ef 6e a9 3d
       -0.016846936 0.012078869 -0.020452458 0.08273112
0001e0 c7 99 e1 3c e1 84 48 3c ab 9b 84 3d e9 03 e5 bc
       0.027539147 0.012238712 0.06475004 -0.027955966
0001f0 83 32 05 3d a9 97 92 3d 43 a4 83 bd 78 f2 86 3d
       0.032518875 0.07157833 -0.06427815 0.06589216
000200 d2 47 b9 bc b6 61 d8 bd 8e 40 ff bd 06 99 21 bd
       -0.022617254 -0.10565512 -0.12463485 -0.039452575
000210 c5 f0 2e 3d 46 81 c1 bd 63 3d 30 3c 88 89 47 3d
       0.042710084 -0.09448485 0.010756823 0.048715144
000220 56 2f b5 bd 91 83 0b 3a 55 3a 95 3d d6 eb de bd
       -0.08846919 0.0005322034 0.072865166 -0.10884826
000230 11 24 89 3d 8c f5 32 be 79 b6 0d 3e 4f 96 8e 3c
       0.06696332 -0.17476481 0.13839139 0.017405657
000240 fe e9 a8 3d d1 48 35 3d 44 f6 22 3e 38 8f a1 3d
       0.082477555 0.044258896 0.15914255 0.07888645
000250 e1 b4 99 3c 82 98 3d bd 3c a3 11 3e 47 5e 50 3c
       0.018763008 -0.04628802 0.14222425 0.01271779
000260 07 77 9b bc 82 6c 4e bd 0d e8 24 3e 14 7a 72 3d
       -0.018977655 -0.05039645 0.16104145 0.059198454
000270 3f e5 18 3e fb 73 69 ba 9d 99 a1 3d 99 4e 19 be
       0.149312 -0.0008905527 0.078906275 -0.14971389
000280 87 c3 bc b9 dd 1a 65 3d 5e 1f c1 3c 2a 73 13 3e
       -0.00036003834 0.055933822 0.023574527 0.143994
000290 ff f8 f9 bc 93 c8 26 bc 05 7d c4 3d e9 5e 51 bc
       -0.030514238 -0.010179657 0.09594158 -0.012778976
0002a0 3a 80 1e 3d e1 70 1e be bb 46 41 bc 6c 44 00 bd
       0.038696505 -0.15472747 -0.011796649 -0.031315252
0002b0 1b e8 80 3d 6e e4 1f 3e 23 44 0a be a6 da d1 bd
       0.062942706 0.15614483 -0.13502555 -0.10246782
0002c0 d6 0a 21 3e d2 4d 39 bd 26 0b 19 3e 61 23 48 3e
       0.1572679 -0.04524023 0.14945659 0.19544746
0002d0 79 c3 ad bc 8c 5f 04 be 38 6e e1 3d 9a 0e b0 3d
       -0.021211373 -0.12927073 0.11007351 0.08596535
0002e0 46 64 fe 3d 8c e6 25 bc b1 69 0f 3d 26 7f 99 bd
       0.124214694 -0.010125767 0.035012905 -0.07494955
0002f0 ca 93 67 3d 4c 47 a5 3d 38 38 02 3d 39 ee 5e bd
       0.056537427 0.080702394 0.031791896 -0.054426406
000300 60 78 05 bc b4 c9 d0 bd 0c e2 9e bd b5 06 b0 3d
       -0.008146375 -0.10194722 -0.07757959 0.08595029
000310 08 24 99 3d 20 bf a8 3d 23 93 b8 3c cc c3 d1 3c
       0.074775755 0.08239579 0.022531098 0.025606059
000320 7e d8 24 bb 7c 16 0a 3e 78 fe 12 be 0c ad 96 bb
       -0.0025153453 0.1348514 -0.14354885 -0.0045982655
000330 4b d8 b3 3b 3d c1 0b 3e f4 4b c2 bd 1e 3e 14 3e
       0.0054884306 0.13647933 -0.09487143 0.14476821
000340 58 27 e5 bd 54 3e e2 3d 04 d0 1c 3d f1 86 65 3d
       -0.11189145 0.110470444 0.038284317 0.056036893
000350 8b 92 9a 3d 69 82 2d be 55 92 92 bd 13 5c d9 bc
       0.07547482 -0.16944279 -0.07156817 -0.026533162
000360 e5 d6 1c be b6 6c c3 bc 8d a1 f0 3c 71 39 6f bd
       -0.15316351 -0.023855548 0.029373908 -0.05840439
000370 db 90 6c 3d 0a 27 c0 bd 66 b4 bb 3d bc 30 29 3e
       0.057755332 -0.09382446 0.09165268 0.16522497
000380 93 25 1f 3e 34 28 ad bd 06 fc 07 be 73 7d 98 bd
       0.15541677 -0.08454934 -0.13279733 -0.074458025
000390 20 a4 1d 3e 54 14 e3 3c ab 41 eb 3d cf a2 ab bd
       0.1539464 0.027719654 0.114871345 -0.08380663
0003a0 aa 4b 06 be 06 ff ec 3d 0a 9f 53 3d 4e a9 a5 bd
       -0.13114801 0.11572079 0.051665343 -0.08088933
0003b0 7a e1 06 3e 19 05 b3 bd 33 9f b1 bd ce 42 93 3d
       0.1317195 -0.08741207 -0.08672943 0.07190476
0003c0 f6 f4 d6 bd 65 52 3f bd de c6 01 be 1a 1a 08 bd
       -0.10495941 -0.046709437 -0.12673518 -0.033228017
0003d0 72 49 cc 3c f6 ba be 3d 99 51 f6 bd 10 24 5d bd
       0.024937365 0.09313004 -0.12027282 -0.05398947
0003e0 ca 59 a7 3d 16 ec 9f bc 10 ee 21 3c 9b 95 86 bd
       0.08171423 -0.019521754 0.009883419 -0.06571504
0003f0 5e f3 18 be 00 a9 1c be 05 76 20 3e 3f b6 74 3c
       -0.14936587 -0.15298843 0.15670021 0.014936029

ode_func.net.4.bias f4 [12]
000000 6b c1 83 3d 03 c7 cc bd eb d8 c4 3d 91 5d 55 bc
       0.06433376 -0.09998896 0.09611686 -0.013022796
000010 5b 3a 08 be 47 4e 2b 3d 2a 46 e6 bc 41 70 02 bd
       -0.13303511 0.041822698 -0.028109629 -0.031845335
000020 47 72 36 3d 39 d9 66 3d 42 4c fe 3d 31 b8 e4 bd
       0.044542577 0.056359503 0.12416889 -0.11167944

classifier.0.weight f4 [64, 12]
000000 7a df 56 3e 20 58 ec 3d d8 ee 68 3e d1 7a f5 bd
       0.20983687 0.11540246 0.22747362 -0.11986316
000010 a0 68 af 3d a4 95 4e 3d bc ec 87 3e eb ca 55 be
       0.085648775 0.050435677 0.26547801 -0.20878188
000020 94 a1 85 be ea 2d 94 be 75 7a 18 bc ef 57 4c be
       -0.26099837 -0.2894128 -0.00930654 -0.19955419
000030 3a eb 49 3a f9 95 13 be 2b eb 8a 3d 55 90 69 be
       0.0007702593 -0.14412679 0.06783136 -0.22808965
000040 f7 88 59 3e f8 34 87 be c9 9a f0 bd 7d df 51 3d
       0.21243654 -0.264076 -0.11748273 0.051238526
000050 43 24 9e be 5a 71 25 3d 28 d1 21 be 25 64 0d be
       -0.3088704 0.040391304 -0.15802443 -0.13807733
000060 b6 6d 8b 3e ea 76 03 be 2f 4e dc 3d 65 29 14 be
       0.2723214 -0.12838331 0.107571 -0.14468916
000070 34 48 25 3e c8 05 7c 3e a2 32 8b 3e f6 5b 49 be
       0.16140825 0.2461158 0.27187067 -0.19663987
000080 f3 3a 94 be 2b bb 80 be 1d 11 99 3c 38 b9 e2 3d
       -0.28951225 -0.25142798 0.018684918 0.11070484
000090 4d f4 60 3e 42 38 a2 3d cb 06 ae 3e 50 47 81 be
       0.21968193 0.079208866 0.33989558 -0.2524972
0000a0 c6 3e 45 be 1b 1f ab bd 99 65 78 3e 87 7c 7d be
       -0.19262227 -0.08355542 0.24257506 -0.24754535
0000b0 a9 a0 4a 3e 5a 09 0d bb 36 a8 f5 3d 23 bd 93 3e
       0.1978785 -0.0021520467 0.11994974 0.28855237
0000c0 6d 61 b0 3e b1 f6 6d 3e 73 72 6c bc 24 e5 1c be
       0.3444933 0.23238637 -0.014431584 -0.15321785
0000d0 97 c8 28 3e 7b dc 7b 3e 31 b9 d8 3c 05 84 bb bd
       0.16482769 0.24595825 0.026455494 -0.0915604
0000e0 5f b8 53 bd 89 16 1b be db da a7 3d 78 37 8d be
       -0.0516895 -0.15145315 0.0819604 -0.27581382
0000f0 0f 12 4e 3e 50 c6 07 bd 60 a2 4c be 25 91 a9 bd
       0.20124076 -0.03314811 -0.19983816 -0.08279637
000100 73 e6 65 be 37 74 89 be de 13 94 3b 10 c0 0c bd
       -0.2245119 -0.26846477 0.00451897 -0.034362853
000110 67 07 d2 bd e2 2f 08 bd d9 24 58 3c 4e e6 1c 3e
       -0.10255318 -0.03324879 0.013192379 0.1532223
000120 c6 00 9b be b9 ac dc 3c c3 01 5f 3b 89 09 4f be
       -0.30274028 0.02693783 0.003402815 -0.20218481
000130 4e d0 87 3e 00 9d f3 bd cd 5c 88 3e f1 64 7f 3e
       0.2652611 -0.1189518 0.266333 0.2494085
000140 1f b5 46 b9 6c 48 8a 3e d1 6a 1d be e2 a5 2a bd
       -0.00018950224 0.27008379 -0.15372778 -0.041662104
000150 82 94 72 be fd ca 3a be 0b 16 9a 3d 88 26 50 3e
       -0.23689464 -0.18241496 0.075237356 0.20327199
000160 94 b8 44 be 95 e6 09 be 8a cc 43 be 39 c5 16 bd
       -0.19211036 -0.13466866 -0.19120994 -0.03680918
000170 ca 04 5b be 5b 4a 76 be 52 3f 84 bd ca 34 8a 3e
       -0.21388546 -0.24051802 -0.0645739 0.269934
000180 75 ae 4e bc 0a 8f b9 bd 92 90 4a 3e 46 8c 73 3e
       -0.012614836 -0.09060486 0.19781712 0.23783979
000190 d9 3d 70 3e 8e 19 8d 39 22 9f 74 3a 65 07 50 3e
       0.23461093 0.00026912655 0.0009331574 0.20315321
0001a0 8d 20 1a 3e 45 ae 87 3e 09 8a 8b 3e 3c c2 c2 bd
       0.1505148 0.26500145 0.2725375 -0.095097035
0001b0 aa be 8b 3e 7e cb 2a 3d fd 76 97 3e 9d de 8f 3e
       0.27293903 0.04169797 0.29582968 0.28099528
0001c0 6d 3e 67 3e c1 ae 26 3e b8 0e 5a 3e ad 32 1f be
       0.22582407 0.16277601 0.21294677 -0.15546675
0001d0 2d 9b d7 bd c6 83 9d bd 62 08 44 be f3 39 6f 3e
       -0.10527644 -0.076911494 -0.19143823 0.2336195
0001e0 40 1b d6 bc bf d7 11 bd 35 4c db bd 28 d3 79 be
       -0.02613604 -0.035606142 -0.10707895 -0.24396956
0001f0 04 3f 02 3d 63 f6 89 3e 09 d0 6e 3e 24 a6 7c 3e
       0.031798378 0.2694579 0.23321547 0.24672753
000200 70 86 43 3e 47 cc 2e 3e e7 c2 27 3d c0 b6 79 be
       0.19094253 0.17070113 0.040957358 -0.2438612
000210 1a ff 23 3e ac a6 3e be 61 ae 38 be 2c a4 13 3e
       0.16015282 -0.18618268 -0.1803527 0.14418095
000220 7f 74 0f 3e 7e 88 1b be ab 5e 41 3e 3d c6 84 be
       0.14009283 -0.15188786 0.18883769 -0.25932494
000230 cd 4f 7d 3d 17 78 2b 3e 58 48 d1 3d a0 e5 22 be
       0.061843682 0.1674503 0.102188766 -0.15907907
000240 39 5b 84 be 5a 91 8a 3e 70 fa 09 3d 12 f0 bb bd
       -0.25850847 0.2706402 0.0336861 -0.09176649
000250 a6 b1 89 3e 7c 50 72 bd 0c cd 47 bd 01 3b b1 3d
       0.26893348 -0.059158787 -0.048779532 0.08653832
000260 05 40 67 3e 3e 92 99 bd 8d 4d 84 3d 17 67 10 be
       0.22583015 -0.074985966 0.06460104 -0.14101826
000270 5d 62 12 be 05 62 bd bc 1f 6c 84 3b 24 a0 22 3e
       -0.14295335 -0.023118028 0.0040412094 0.15881401
000280 d1 a3 4b be 40 42 21 3e fd cf 62 3e 88 82 2a bd
       -0.1988671 0.15747929 0.22149654 -0.04162839
000290 e5 1a 95 bc 57 a6 a8 3d 8f e5 85 be e8 33 53 3e
       -0.0182013 0.08234852 -0.26151702 0.2062527
0002a0 bb 26 b7 bd 22 0d 91 bc 25 c7 bc 3d 25 34 18 3e
       -0.08942934 -0.017706458 0.09217671 0.14863642
0002b0 0c d1 3d be d2 3a 71 be 73 67 9f be 16 24 62 be
       -0.18536776 -0.23557594 -0.31133613 -0.22084078
0002c0 e4 25 33 bd 27 a0 65 be 0f d2 28 3c 02 c0 15 be
       -0.043737307 -0.22424375 0.010303988 -0.14624026
0002d0 c2 d3 55 3e 1e dc 2a 3e af 20 89 3e f4 f6 46 be
       0.2088156 0.1668553 0.26782748 -0.19430143
0002e0 ba 37 39 be 30 63 ce 3d 10 27 49 bd cf 56 47 3e
       -0.18087664 0.10077512 -0.04910952 0.19466709
0002f0 7c 5c 7c be 3b 6c 6f 3e 01 12 73 be 21 71 62 be
       -0.24644655 0.2338113 -0.23737337 -0.22113468
000300 01 4d 4b 3c 25 3e 12 be 23 9c 4f be 0e bc 13 3e
       0.012408496 -0.14281519 -0.20274405 0.14427206
000310 7f 6c 63 3e 27 7a 11 3e 78 94 2e 3c 0a 2a 51 bd
       0.22209357 0.14206754 0.010655515 -0.051065482
000320 82 8b 23 be a1 3d 77 3e 88 c3 44 be 0c 1a 7a be
       -0.15971187 0.24144603 -0.19215214 -0.24423999
000330 1c 10 3b 3e 42 36 a7 3c b5 b2 2e 3e 06 79 7d bd
       0.18267864 0.020411614 0.17060359 -0.061882995
000340 b7 71 58 3e a2 fa 35 be 07 d9 47 3e 80 28 77 3e
       0.21137129 -0.1777139 0.19516383 0.24136543
000350 4f 53 8b bc b3 c7 76 3e a7 e2 71 3d 2a 48 8f be
       -0.017007498 0.24099617 0.059054043 -0.27984744
000360 ae bf 2c 3e 22 23 67 be 0e af 35 3d 4e 54 93 be
       0.16869995 -0.22571996 0.0443564 -0.28775257
000370 27 ce c9 bd d4 c4 ae bd b5 7f d4 bd 12 45 9f be
       -0.098537736 -0.08533636 -0.10375921 -0.31107384
000380 fb c4 0e be 85 e4 90 be 40 7a 94 be 2f 86 93 be
       -0.1394233 -0.28299347 -0.2899952 -0.2881331
000390 62 c0 6e be 00 07 d9 bc 9f b4 77 3e bc 42 3e be
       -0.23315576 -0.026492596 0.24189995 -0.18580145
0003a0 ed 1b 55 be 0f 30 7b be dc 1a 91 3e ea d6 c2 bc
       -0.20811434 -0.24530052 0.28340805 -0.02378412
0003b0 9d 3c b8 bd e0 fa 59 3e 4e 35 e5 bd 0e 5a bf bd
       -0.08995936 0.21287107 -0.11191808 -0.093433484
0003c0 c9 2e 7f 3e b0 47 2d 3e 82 9b 87 be 90 a4 b9 bd
       0.24920191 0.16921878 -0.2648583 -0.09064591
0003d0 0c 52 df 3b 25 eb e3 3d d2 da 04 be 01 93 5e 3e
       0.0068152007 0.11128835 -0.12974098 0.21735765
0003e0 26 22 4d bc 4b db 6a be 96 3f d3 3d 2e 57 8f be
       -0.012520349 -0.22935216 0.103148624 -0.279962
0003f0 ef 48 05 bd ec af 92 be d2 fb c5 bd 3a cc f0 bc
       -0.032540258 -0.28649843 -0.096671715 -0.029394258

classifier.0.bias f4 [64]
000000 7d 74 57 3e 0a 25 c6 3d 00 aa 85 3d 1b 90 0c be
       0.2104053 0.096750334 0.065265656 -0.13726847
000010 fa 91 14 be b1 b5 4e 3c 12 67 30 be 70 4d d6 3d
       -0.1450881 0.012616561 -0.17226818 0.10463989
000020 2a ff 61 be b8 b5 83 be 05 e3 dd bd 8f 91 26 3e
       -0.22069994 -0.25724578 -0.10834316 0.16266464
000030 6c f8 6a 3e 8f 3a 84 be b0 0b 2e be 7c 3b 8d 3d
       0.22946328 -0.25825927 -0.16996646 0.06896111
000040 2e b3 87 bd 66 c3 84 be f1 34 c1 3d bb 96 61 be
       -0.06625973 -0.25930327 0.09433926 -0.22030155
000050 18 60 91 3c 39 b1 01 3e 4f 1e 7d 3e 38 a4 5e be
       0.017746016 0.12665261 0.24718593 -0.21742332
000060 fe c9 38 3e e2 28 4a 3d d4 ed 86 3e 53 4a 99 3e
       0.18045804 0.049355395 0.26353323 0.29939517
000070 d2 c2 f7 bc 10 98 31 bd 65 ad 66 bd 97 a7 83 3e
       -0.030244265 -0.04335791 -0.056317706 0.25713798
000080 e6 75 fd bd 88 88 6c 3e 78 d0 ff 3d 20 01 9f 3e
       -0.12376003 0.23098958 0.12490934 0.31055546
000090 11 6c 6d 3e 53 a1 85 3e b6 6d 4e be 5d 92 01 be
       0.23185755 0.26099643 -0.20159039 -0.1265349
0000a0 08 b8 28 be 64 6e f5 3d 9b 9a 82 3d 9c 3b c9 3d
       -0.16476452 0.11983946 0.06377145 0.09825823
0000b0 e2 f8 17 3e ab 45 f1 3b 14 0a 02 3e d0 ec fc bd
       0.14841035 0.0073630414 0.12699157 -0.12349856
0000c0 ca 8b 3a 3e b6 3c 84 be ea 4b 5b be 0b 4c af 3d
       0.18217388 -0.2582757 -0.21415678 0.08559426
0000d0 2f d4 98 3e 30 29 ba bd 82 86 88 3e 90 30 57 bd
       0.29849383 -0.09089887 0.2666512 -0.052536547
0000e0 15 f2 5e be 5e c6 b3 bb e8 f0 2a 3e a2 d4 00 be
       -0.21772034 -0.0054862937 0.16693461 -0.12581113
0000f0 c6 52 a6 3e 0d eb 9f bd 67 11 0b be 68 da ef bd
       0.32485026 -0.07808504 -0.13580857 -0.117115796

classifier.3.weight f4 [32, 64]
000000 92 a3 c4 bd 0e 29 d1 3d c0 46 91 bd 01 e9 86 bd
       -0.09601511 0.10212909 -0.070935726 -0.06587411
000010 3e ee f6 bc 9c 9a e7 3d ed 1b f0 3d e4 60 be 3d
       -0.0301429 0.11308786 0.117240764 0.09295824
000020 f5 4c f9 3b 05 ef 11 3d 74 2a 0b 3d 49 0b ba 3d
       0.007608051 0.035628337 0.033976033 0.09084184
000030 54 a3 43 3d 3c e0 c8 3d 4d 0d ec 3d c3 69 d6 3c
       0.047763184 0.09808394 0.115259744 0.026173478
000040 51 c3 a7 bd 18 5d 07 3d 1f ed c6 bd dd 76 0c 3d
       -0.081915505 0.033047765 -0.09713196 0.034293044
000050 92 9d da bc 5e 0b 08 3e e8 b1 c8 bd da 66 87 bd
       -0.026686464 0.13285586 -0.09799558 -0.06611414
000060 40 fe 85 3d 4c 8d 89 3d d0 31 ee 3a 1a 71 ae 3c
       0.06542635 0.06716403 0.0018172804 0.021294165
000070 b5 2f 17 3e 02 d7 79 3d 60 58 83 bc b8 6b 03 3e
       0.14764293 0.060996063 -0.016033351 0.1283406
000080 74 fd fd 3d 3e 27 1d 3d c9 d7 d2 3d bc 9b 59 3d
       0.12401858 0.038367502 0.10295064 0.053127035
000090 24 1a a2 3b cd f5 8c bc e7 2e 7f bd 1e 6b 95 3d
       0.004946964 -0.01720705 -0.06230059 0.072958216
0000a0 e3 20 8c bd b8 b6 8a bd cb 63 b8 3c b8 8b 50 bd
       -0.0684221 -0.06773132 0.022508522 -0.050914496
0000b0 f1 62 a4 bc 48 12 88 36 5d ac 29 3d e8 68 f4 3b
       -0.02006671 4.055244e-06 0.041424144 0.007458795
0000c0 55 6e 99 3d 5f cc 77 bc c1 21 a4 3d cd 1d d4 bd
       0.07491747 -0.015124409 0.080142505 -0.103572465
0000d0 b6 02 1d 3e 0a 44 0f 3d 8c 4f c6 3d 89 45 8b bd
       0.15333065 0.034976996 0.09683141 -0.06800372
0000e0 4d 9f 97 3d 98 99 b2 bc bb 19 b0 bd 9d bf 17 3e
       0.07403431 -0.021801755 -0.08598658 0.14819188
0000f0 26 16 71 3d fd de 9f 3d 8f 07 1a 3e 84 5a 69 3d
       0.058859013 0.078062035 0.15041946 0.056971088
000100 c4 e2 07 3e b8 00 90 bd 77 fe 19 3e c2 2c 89 3d
       0.13270098 -0.07031387 0.15038477 0.0669799
000110 b1 ad b7 3c 71 cb ca bd 3a 19 bf bd 9a d4 ab 3d
       0.02242169 -0.099020846 -0.093309835 0.0839016
000120 1c 58 8a 3d 64 d8 08 3e 90 90 73 bc 89 4e 28 bd
       0.06755087 0.13363796 -0.014866009 -0.041090522
000130 75 0d 17 3c 89 62 85 bd 8d f2 ac bd 33 4b 5f 3d
       0.009219517 -0.06512935 -0.084447004 0.054515075
000140 6d 4c 9c 3d 2a 89 a3 bd 14 4a 83 bd 4d c4 89 3c
       0.076317646 -0.07985146 -0.06410614 0.016817236
000150 53 1c 59 bd 9e 76 c4 bd 47 50 28 3c ec f0 07 bd
       -0.053005528 -0.09592937 0.010273046 -0.033188745
000160 25 71 49 bd 2e 21 fa 3d 46 01 91 3d 65 0a 90 3d
       -0.04918017 0.1221336 0.07080321 0.070332326
000170 dd 1e 8a bd ba 5e 05 bd fd 32 9e 3d 8f 03 ff bc
       -0.06744168 -0.03256104 0.07724569 -0.031129627
000180 22 35 f8 bd 03 d0 d6 bc ab 11 3c 3d fc c1 6d bd
       -0.12119509 -0.026222235 0.045915287 -0.058046326
000190 8a ab 72 bd 04 dc b7 ba 4c a9 3a 3d 17 d2 9e 3d
       -0.059245624 -0.0014027362 0.04557161 0.07754915
0001a0 c1 b3 92 bd 3d 67 68 3d 49 40 dd 3c 86 14 4f 3d
       -0.071631916 0.05673908 0.027008193 0.050556682
0001b0 45 1d cd bd cb fc b5 bd 0e ea b6 3d b6 d3 93 3d
       -0.10015348 -0.08886107 0.08931361 0.07218115
0001c0 47 1c 6f bd 04 4b 25 bd ea e8 73 3d 46 5c ee 3b
       -0.058376577 -0.040354744 0.059548296 0.0072741834
0001d0 9f 27 60 3d 44 0c 48 3b 3b 8f 07 3d 01 87 8b 3b
       0.054725286 0.003052489 0.03309558 0.004258037
0001e0 1e 22 1c bd 62 1c 59 3d 9c 1c ce 3b ab be 12 be
       -0.038118474 0.053005584 0.0062900316 -0.14330547
0001f0 8c b8 82 bd d0 7b 0a bd 73 6b 8f 3d 4f 96 5b 3d
       -0.06382856 -0.033809483 0.07002916 0.053610142
000200 68 15 9a bd 24 8b 1e bc 6d 30 2e 3e 20 2e c7 3c
       -0.07523614 -0.009676728 0.1701066 0.024313986
000210 40 2d 00 3e 7e c5 c2 3c 07 31 3f 3d d4 b2 a4 bd
       0.12517262 0.023775812 0.046677615 -0.08041921
000220 76 df b6 3d 4a 11 90 3d bd 84 e3 bc 1b fc 01 3e
       0.089293405 0.070345476 -0.027773255 0.12693827
000230 f4 71 52 3d e6 b2 aa bd 0f da e7 bc b8 a0 c0 3d
       0.051378205 -0.083349034 -0.02830222 0.09405655
000240 17 8f b4 3c 16 7b dc bc e4 36 71 bd 0e 38 c8 bd
       0.022040887 -0.02691416 -0.05889024 -0.097763166
000250 cc ec b5 3d 79 6a 0c 3d fc 0f a6 bd 72 30 5f bd
       0.08883056 0.034281228 -0.081085175 -0.05448956
000260 00 56 26 3d cf b7 8f bd c3 30 cb 3d 1d 2c fd 3b
       0.04060936 -0.070174806 0.0992141 0.007726206
000270 ff 5e 9e bd c0 92 70 bc 83 da 43 3d 8c f2 1e bc
       -0.07732963 -0.014683425 0.04781581 -0.009701382
000280 52 79 d9 3d 50 c2 1c 3d 31 87 02 b9 e3 66 3e b9
       0.10618843 0.03827125 -0.00012448129 -0.0001815814
000290 c9 1e e3 3b c3 0c d4 bc 99 85 15 be a8 6e 73 bc
       0.00693116 -0.025884992 -0.14601745 -0.0148579255
0002a0 14 13 8d bb 50 17 00 be fe 9c 72 3c ee 93 30 bd
       -0.004305253 -0.12508893 0.014807938 -0.043109827
0002b0 2b 11 a9 3d 77 1e 03 3d 93 7b 5f 3c 44 95 ae 3d
       0.08255228 0.032011475 0.013640302 0.08524564
0002c0 8f e4 cd 3b 6f c2 a3 3d bc 98 5a 3d e7 c5 f6 3c
       0.00628335 0.0799607 0.053368315 0.030123664
0002d0 9a ee 86 bd 87 cb 89 3d 61 55 5b bd 0d b3 d2 bc
       -0.065884784 0.06728273 -0.05354822 -0.025720144
0002e0 c2 89 7d 3d 33 a8 d3 3d 3b 6d 0e be 84 5d d8 3c
       0.061898954 0.10334816 -0.13908856 0.02641178
0002f0 36 6e a6 bd 81 b9 e5 bd 09 f1 9c bd 52 6b c2 3c
       -0.0812649 -0.11217023 -0.07663161 0.023732815
000300 ce 66 4b 3d aa 96 fd bd d4 ac f4 3c 9a ab bb 3d
       0.04965859 -0.123822525 0.029867567 0.0916359
000310 38 5e 9f bd bd d1 00 3d 08 c8 ed 3b 88 6a 97 3d
       -0.07781643 0.031450022 0.0072565116 0.07393366
000320 b6 fe ce 3d bf 8e b5 bd 9f 51 36 3d 8a ba eb 3d
       0.10107176 -0.08865117 0.044511434 0.11510189
000330 d9 86 39 3d af 4e a1 bd 67 4a c6 3c 42 90 0a 3d
       0.045294616 -0.07876336 0.0242054 0.03382898
000340 11 f0 86 3d 03 f1 3e 3c 4f d0 6c bd 45 b0 30 bd
       0.06588758 0.011654141 -0.057815846 -0.043136854
000350 ac 3e 73 3d 6e 9a 28 bd cc 89 72 bd 07 58 ef 3d
       0.05938594 -0.0411629 -0.059213445 0.11686712
000360 30 34 4f bd a8 e3 f8 bc d1 7e a2 bc 94 ec f5 bd
       -0.05058688 -0.030381992 -0.019835861 -0.12008014
000370 f4 85 dd 3d 72 86 ad 3b a4 1d 5e bd 6f ff b3 3c
       0.10816565 0.005295568 -0.054227486 0.021972386
000380 41 4d 31 3d d5 42 1f 3e dd 15 01 3e cb b5 09 3d
       0.043286566 0.15552838 0.12605996 0.033620637
000390 70 c6 98 bd ef d8 d3 bb 26 c8 58 3d 34 61 eb 3d
       -0.07459724 -0.0064650695 0.05292525 0.114931494
0003a0 01 a4 8e bc a0 db 9f bd 16 88 ab 3d 50 ee 0e bd
       -0.017412188 -0.07805562 0.08375566 -0.03489524
0003b0 fa 6f ca 3d 38 89 82 3d 4a 12 cd 3d cd 3f 0f 3d
       0.09884639 0.06373829 0.10013254 0.034972955
0003c0 95 9e 03 bd 08 4c cc bd 1e 97 26 3e 5e b6 9e 3d
       -0.032133657 -0.09975439 0.16268584 0.077496275
0003d0 ac 43 9e 3a 55 2a ce 3d 3b 13 0e 3d 4b 65 79 3c
       0.0012074611 0.10066668 0.03468631 0.015221904
0003e0 ae 7b bc bd 2f 98 b8 bd d1 2e 01 3e 5b 62 28 bd
       -0.092032775 -0.09013402 0.12615515 -0.041109424
0003f0 f0 92 8a 3b ea 6c 35 3e b3 b1 2d bc a0 46 cd 3d
       0.004228942 0.17717329 -0.010601449 0.10023236

classifier.3.bias f4 [32]
000000 40 ce 88 3d 83 1f a1 3b 1e 33 6d 3c a9 2c a0 3d
       0.06679964 0.0049170866 0.014477519 0.07821018
000010 71 ca ae bd 98 70 c8 bc bd be 06 3d 23 d1 fb bd
       -0.085347064 -0.024467751 0.032896746 -0.12295749
000020 e1 1f c6 3d fc d2 ce bd 4e 3f e2 3d d5 5f 14 3e
       0.09674049 -0.10098836 0.11047231 0.14489682
000030 02 1e 15 3d 8d 80 25 bd 3e 70 e2 3d 36 ab 42 bd
       0.03640557 -0.0404058 0.11056565 -0.04752656
000040 ce 50 e0 3c 27 5b 9c 3d d5 f0 dc 3d f0 ac 0f bc
       0.02738228 0.076345734 0.107881226 -0.008769259
000050 55 4c a5 3b 87 11 a4 3c 37 d6 cd bd 93 43 13 3d
       0.0050445 0.020027889 -0.10050624 0.035953116
000060 09 93 88 bd 90 b2 00 3d cd 64 ad bb 6e 42 b1 3d
       -0.0666867 0.03142029 -0.0052915574 0.086552486
000070 d8 89 45 bd 29 24 d7 3d 3e f4 ba 3c 1d 56 80 3c
       -0.04822716 0.10504944 0.022821542 0.015666062

classifier.6.weight f4 [2, 32]
000000 87 3d 53 be e7 76 22 3e ea 63 e8 3c 78 cf 3f be
       -0.2062894 0.1586567 0.028367955 -0.18731487
000010 9e 33 19 3d ff 1d db 3d 3f a9 c0 bd 2f 3e 0c 3e
       0.03740274 0.10699081 -0.09407281 0.13695596
000020 a3 24 0c 3e fd 8e ad bc 67 61 05 3e 43 43 28 3e
       0.13685851 -0.021186346 0.13025437 0.16431908
000030 bb d6 61 3a 91 0b 03 3d 98 e1 bb 3d 9b 3b f0 bd
       0.0008615066 0.031993452 0.09173888 -0.11730119
000040 07 cf 1d 3e c7 96 00 be 12 7a de bd 71 2a 7e 3d
       0.15411006 -0.12557517 -0.10863127 0.062052194
000050 66 be 49 be 83 16 d7 bd af f5 e9 bd 84 31 06 3e
       -0.19701537 -0.10502341 -0.114238136 0.13104826
000060 bd e7 d9 bc 85 28 26 be 3e 57 bd 3d 66 7e 5d bd
       -0.02659976 -0.16226394 0.09245156 -0.05407562
000070 df ef 08 3c bb b5 d2 3d d6 42 32 be df 28 86 bd
       0.008357971 0.102885686 -0.17408308 -0.06550764
000080 8a 7f 68 bc 4f 53 40 bd cf 1b 9e bd d5 88 10 3e
       -0.014190564 -0.04695445 -0.07720148 0.14114697
000090 78 25 ea bd 46 95 1d be a3 45 08 3e 7b 40 84 3d
       -0.11432928 -0.15388975 0.13307814 0.06457611
0000a0 47 e1 46 bd 14 8a 56 3c 10 43 61 3e 74 50 ca bd
       -0.048554685 0.013094444 0.21998239 -0.098786265
0000b0 0e a1 38 be ff b0 62 be 2b af 08 3c d2 2e ff 3d
       -0.18030187 -0.22137831 0.008342545 0.12460102
0000c0 6e 43 2f bd 26 01 44 be c1 47 fe bd b6 d0 cf bd
       -0.042788915 -0.19141063 -0.1241603 -0.1014723
0000d0 3e 8b 10 3e 2d 15 a6 3d b2 2e a0 bd 17 52 4f be
       0.14115617 0.08109508 -0.078214064 -0.20246159
0000e0 aa 55 0c 3e 41 25 1e 3d fb 21 67 3e 36 7d 2f be
       0.13704553 0.038609747 0.22571556 -0.17137608
0000f0 18 5a 2f be 24 b5 50 bc 7c e2 32 3e d6 f4 29 3e
       -0.17124212 -0.0127385 0.1746921 0.16597304

classifier.6.bias f4 [2]
000000 f7 9e 28 3e b5 2e fd 3d
       0.1646689 0.12362424
